mnist/trained.tflite (tflite, 40880 bytes, 3 tensors)

tfl.pseudo_qconst1 i1 [10, 1600] scale=0.004357667 zero_point=0
-0.10458401 -0.09151101 -0.017430669 -0.017430669 -0.069722675 -0.017430669 -0.08279568 -0.08279568
-0.013073001 -0.056649674 -0.056649674 -0.08279568 -0.069722675 -0.013073001 0.043576673 0.013073001
0.13508768 0.004357667 -0.10894168 0.0 0.10458401 0.0 0.14380302 0.10022634
-0.04793434 -0.004357667 -0.13944535 0.07843801 -0.03050367 -0.043576673 -0.052292004 -0.043576673
0.08279568 0.021788336 -0.08279568 -0.04793434 -0.03050367 -0.013073001 0.043576673 0.0
-0.15251835 -0.16559136 -0.2265987 -0.087153345 0.052292004 -0.021788336 0.043576673 -0.017430669
0.039219003 -0.026146002 -0.043576673 0.043576673 -0.087153345 0.087153345 0.03050367 -0.043576673
-0.14380302 -0.069722675 0.04793434 -0.034861337 0.04793434 0.07843801 0.021788336 -0.052292004
-0.20481035 -0.17866436 -0.06100734 -0.03050367 -0.14816068 -0.21788336 -0.15251835 -0.07408034
-0.17430669 -0.14816068 -0.07843801 -0.039219003 -0.16994902 -0.11329935 -0.026146002 -0.06100734
-0.21788336 -0.08279568 0.03050367 0.017430669 -0.087153345 -0.08279568 -0.034861337 -0.17866436
0.026146002 -0.14380302 -0.056649674 0.008715334 -0.034861337 -0.039219003 -0.14380302 0.052292004
-0.056649674 0.034861337 -0.087153345 -0.069722675 0.021788336 -0.026146002 -0.021788336 -0.21788336
0.06100734 -0.23095636 -0.04793434 -0.13944535 0.0 -0.2919637 -0.052292004 -0.15251835
-0.013073001 -0.026146002 0.07843801 0.04793434 -0.09151101 -0.069722675 0.03050367 -0.14380302
-0.13944535 -0.07408034 -0.11765701 -0.017430669 0.056649674 -0.039219003 0.021788336 -0.15251835
0.039219003 -0.056649674 -0.06100734 -0.034861337 0.10458401 -0.12201468 -0.07408034 -0.039219003
0.056649674 0.0 -0.021788336 -0.06536501 -0.14380302 0.0 0.008715334 0.03050367
0.004357667 -0.087153345 0.008715334 -0.013073001 -0.017430669 -0.09586868 -0.069722675 -0.12201468
-0.087153345 0.10458401 -0.09151101 -0.052292004 0.013073001 -0.004357667 -0.14380302 -0.013073001
-0.008715334 0.026146002 -0.087153345 -0.09151101 -0.021788336 0.026146002 0.07408034 -0.04793434
-0.07843801 -0.27453303 0.039219003 -0.10458401 0.069722675 -0.10894168 -0.043576673 0.004357667
0.0 -0.11329935 -0.056649674 -0.013073001 0.069722675 0.008715334 -0.013073001 0.0
-0.20045269 -0.04793434 -0.043576673 0.043576673 0.043576673 -0.22224103 -0.07408034 -0.008715334
-0.06536501 -0.013073001 0.19173735 -0.008715334 -0.039219003 -0.10022634 -0.03050367 0.008715334
-0.07843801 0.03050367 0.07843801 -0.20481035 -0.017430669 -0.056649674 0.043576673 0.06100734
-0.087153345 -0.18302202 0.03050367 0.026146002 -0.07843801 0.052292004 -0.24402936 -0.043576673
-0.008715334 0.06100734 -0.039219003 0.04793434 0.0 0.008715334 -0.16123368 0.008715334
-0.07408034 -0.08279568 -0.052292004 0.004357667 -0.004357667 0.0 0.10458401 -0.013073001
0.017430669 0.06100734 0.052292004 0.08279568 -0.026146002 -0.06100734 0.039219003 -0.10022634
0.056649674 -0.03050367 -0.052292004 0.09586868 -0.17866436 -0.06536501 -0.026146002 0.043576673
-0.13508768 -0.034861337 -0.12201468 0.06536501 -0.021788336 -0.13508768 0.11329935 -0.008715334
00000000: e8eb fcfc f0fc eded fdf3 f3ed f0fd 0a03
00000010: 1f01 e700 1800 2117 f5ff e012 f9f6 f4f6
00000020: 1305 edf5 f9fd 0a00 ddda ccec 0cfb 0afc
00000030: 09fa f60a ec14 07f6 dff0 0bf8 0b12 05f4
00000040: d1d7 f2f9 dece ddef d8de eef7 d9e6 faf2
00000050: ceed 0704 eced f8d7 06df f302 f8f7 df0c
00000060: f308 ecf0 05fa fbce 0ecb f5e0 00bd f4dd
00000070: fdfa 120b ebf0 07df e0ef e5fc 0df7 05dd
00000080: 09f3 f2f8 18e4 eff7 0d00 fbf1 df00 0207
00000090: 01ec 02fd fcea f0e4 ec18 ebf4 03ff dffd
000000a0: fe06 eceb fb06 11f5 eec1 09e8 10e7 f601
000000b0: 00e6 f3fd 1002 fd00 d2f5 f60a 0acd effe
000000c0: f1fd 2cfe f7e9 f902 ee07 12d1 fcf3 0a0e
000000d0: ecd6 0706 ee0c c8f6 fe0e f70b 0002 db02
000000e0: efed f401 ff00 18fd 040e 0c13 faf2 09e9
000000f0: 0df9 f416 d7f1 fa0a e1f8 e40f fbe1 1afe

tfl.pseudo_qconst3 i1 [64, 3, 3, 32]
41 32 -46 -76 -35 -69 45 2
-11 -65 -2 20 3 -39 -5 -38
-52 -43 -58 -74 -6 -26 -27 -50
28 -68 -30 -58 -90 -9 -37 -30
68 48 -12 -16 7 10 69 25
18 29 42 29 54 14 13 -9
-7 32 -29 -19 32 -5 31 76
12 -37 16 -23 -17 -15 20 -1
-14 -33 -11 -36 3 31 -15 -33
13 38 21 35 3 -42 11 -28
42 -37 15 -5 25 3 9 52
-36 -15 -16 8 30 -17 50 26
31 25 6 -66 -60 -9 37 94
29 -3 75 21 -19 -29 -13 0
19 -43 -43 -33 9 -64 39 45
-1 -46 -45 19 -42 -42 16 -13
63 13 12 -20 -1 14 33 56
24 6 48 -27 38 -8 -37 -2
22 -39 -21 24 70 3 8 116
21 7 17 -11 -32 15 9 15
-50 -51 -14 -47 -15 -12 -87 -45
-75 -57 -76 -53 -54 -55 -21 -64
-53 -55 -5 -26 60 3 -53 38
9 -43 -43 -48 -40 -32 22 16
51 25 -18 -7 -8 36 16 68
13 51 46 20 -35 -66 -34 -10
25 -23 15 26 68 16 24 39
-120 -25 -4 -36 33 -29 14 -22
-39 -54 -4 -40 -35 -11 -41 -24
29 -7 3 -46 -79 -76 -47 -31
31 -63 2 1 2 -22 -19 56
27 -22 -94 5 -31 -8 -15 -14
00000000: 2920 d2b4 ddbb 2d02 f5bf fe14 03d9 fbda
00000010: ccd5 c6b6 fae6 e5ce 1cbc e2c6 a6f7 dbe2
00000020: 4430 f4f0 070a 4519 121d 2a1d 360e 0df7
00000030: f920 e3ed 20fb 1f4c 0cdb 10e9 eff1 14ff
00000040: f2df f5dc 031f f1df 0d26 1523 03d6 0be4
00000050: 2adb 0ffb 1903 0934 dcf1 f008 1eef 321a
00000060: 1f19 06be c4f7 255e 1dfd 4b15 ede3 f300
00000070: 13d5 d5df 09c0 272d ffd2 d313 d6d6 10f3
00000080: 3f0d 0cec ff0e 2138 1806 30e5 26f8 dbfe
00000090: 16d9 eb18 4603 0874 1507 11f5 e00f 090f
000000a0: cecd f2d1 f1f4 a9d3 b5c7 b4cb cac9 ebc0
000000b0: cbc9 fbe6 3c03 cb26 09d5 d5d0 d8e0 1610
000000c0: 3319 eef9 f824 1044 0d33 2e14 ddbe def6
000000d0: 19e9 0f1a 4410 1827 88e7 fcdc 21e3 0eea
000000e0: d9ca fcd8 ddf5 d7e8 1df9 03d2 b1b4 d1e1
000000f0: 1fc1 0201 02ea ed38 1bea a205 e1f8 f1f2

tfl.pseudo_qconst5 i1 [32, 3, 3, 1]
-127 -12 70 -84 43 39 -43 39
48 -3 -89 -127 25 -7 4 4
96 89 9 -127 -40 28 -17 102
32 70 -74 69 92 -53 11 38
49 -127 24 81 42 73 78 21
16 26 -127 -108 -91 50 42 89
97 69 -37 -83 -118 -127 -127 -28
6 -101 -22 84 -81 7 76 -60
-92 -74 -73 -56 40 90 127 97
-127 -48 -17 -82 52 51 95 63
54 -122 69 112 44 124 30 127
-11 -110 -127 -48 33 -102 27 93
19 40 40 -39 -126 -127 76 -49
19 93 22 116 -31 -72 -127 92
9 -117 114 96 7 41 58 45
-56 28 63 -127 -86 49 90 -11
-127 8 37 -15 -58 92 94 28
88 -127 45 83 70 -109 38 37
-127 -89 19 21 76 89 71 13
-37 91 121 1 -106 28 127 -107
-52 43 86 97 -34 54 76 -61
127 39 -121 29 72 47 127 4
2 115 1 48 69 -6 -55 84
-80 -22 34 -127 5 75 56 65
-10 50 6 -71 -127 -91 -56 80
-7 -91 8 99 -16 127 46 -127
-39 45 47 3 -9 63 19 -54
-127 -100 -8 -4 -51 -108 62 53
2 28 65 -67 46 59 -127 -7
106 79 -32 71 -27 1 99 32
-127 -45 41 38 -9 -127 -3 101
5 0 61 3 65 -57 28 127
00000000: 81f4 46ac 2b27 d527 30fd a781 19f9 0404
00000010: 6059 0981 d81c ef66 2046 b645 5ccb 0b26
00000020: 3181 1851 2a49 4e15 101a 8194 a532 2a59
00000030: 6145 dbad 8a81 81e4 069b ea54 af07 4cc4
00000040: a4b6 b7c8 285a 7f61 81d0 efae 3433 5f3f
00000050: 3686 4570 2c7c 1e7f f592 81d0 219a 1b5d
00000060: 1328 28d9 8281 4ccf 135d 1674 e1b8 815c
00000070: 098b 7260 0729 3a2d c81c 3f81 aa31 5af5
00000080: 8108 25f1 c65c 5e1c 5881 2d53 4693 2625
00000090: 81a7 1315 4c59 470d db5b 7901 961c 7f95
000000a0: cc2b 5661 de36 4cc3 7f27 871d 482f 7f04
000000b0: 0273 0130 45fa c954 b0ea 2281 054b 3841
000000c0: f632 06b9 81a5 c850 f9a5 0863 f07f 2e81
000000d0: d92d 2f03 f73f 13ca 819c f8fc cd94 3e35
000000e0: 021c 41bd 2e3b 81f9 6a4f e047 e501 6320
000000f0: 81d3 2926 f781 fd65 0500 3d03 41c7 1c7f
